src/models/artifacts/lstm_meter_model.pt (torch, 205750 bytes, 9 tensors)

lstm.weight_ih_l0 f4 [256, 1]
0.10373393 0.03695583 0.016120858 -0.09544554 0.101467684 0.06247189 -0.07256791 0.101999134
-0.021762665 0.01535719 -0.11855631 -0.016140569 0.10927509 0.0141862035 0.021188121 -0.119941965
-0.0609263 -0.057659786 0.068493694 0.12257396 0.08050288 -0.0014391232 0.06490055 0.07092377
-0.0021905038 -0.073531896 0.027188383 -0.0013417441 -0.08781849 -0.09237368 -0.11060745 -0.09866253
-0.025192166 0.011369413 -0.048771877 0.08207492 0.09093727 0.09744373 0.11316727 0.0018064028
0.08132734 -0.11793536 0.016013073 0.001623521 0.01631442 0.083662674 0.018966714 0.00038607136
0.122563794 0.07888192 0.07294778 -0.12476425 -0.12344843 0.07226007 0.084203504 -0.00085749495
0.011217292 -0.1200722 -0.08727657 0.115976885 0.048736673 0.038266364 -0.117184654 0.009012823
0.080465935 -0.057762578 0.013352472 0.016704991 0.012833124 0.061178103 0.11177407 -0.12088612
-0.08816895 0.012353747 -0.12151982 0.09163909 0.017658386 0.011121334 0.014590042 0.11183883
0.12422721 0.06476657 0.10399246 0.08105865 0.120087266 0.084202066 0.026483558 0.07572126
0.09689286 0.08766036 0.012589438 0.0896546 0.066844955 -0.007145154 0.05217223 -0.06055039
-0.004801453 0.013528307 -0.052490443 0.01236464 0.11918229 0.12009166 0.059264556 0.06440198
0.07037513 -0.050351437 0.008701234 0.08463862 0.0129796555 0.07098545 0.002636016 0.08595204
0.09023209 0.045314975 0.012427543 0.10638489 -0.04577914 0.028996218 0.10001171 0.09003863
0.08377797 -0.021624237 -0.11968514 0.05426736 0.012693056 0.008479112 0.026240945 0.02055708
0.072691426 -0.11690639 0.033602517 -0.050324246 -0.072971016 -0.033548936 0.04962063 0.07527423
-0.09133616 -0.10958184 -0.043559507 0.073753595 0.050312847 0.101138964 0.037759017 -0.01500683
-0.07142812 0.049987897 -0.033161033 -0.107045814 -0.020961484 0.06727019 0.06721255 -0.08723368
-0.094913244 -0.006863208 -0.04139561 -0.056291938 0.047346845 0.07550773 -0.06290418 0.11538042
0.030730182 0.051281147 0.071728274 -0.10504803 0.08188364 0.025167778 0.111963585 -0.07734367
0.09859961 0.02895394 0.037940692 0.09182854 0.10809885 0.054133013 -0.022406967 0.044279538
-0.11351231 0.11621246 -0.107286096 0.0012405813 -0.05084698 0.1249491 -0.054697454 -0.05548248
-0.09640753 0.06678608 0.06847417 -0.032841776 -0.03455315 -0.07258956 0.12363598 -0.05311498
0.020171842 -0.12086676 0.10317391 -0.10453713 0.021916106 0.09651312 -0.066999055 -0.114853404
-0.113045804 0.08578123 0.11164969 0.022861829 0.019045979 0.051481448 0.027324012 0.02346467
-0.07471568 -0.081479676 0.09661853 -0.12170787 0.12167168 0.09146148 -0.0962053 0.020633804
0.09396576 -0.107812956 0.087514214 0.10414977 -0.05482845 -0.065172724 -0.052975018 -0.044414993
-0.07319448 0.056546614 -0.08013086 0.023197629 0.01952891 0.023441471 0.049827978 0.07709099
0.020594968 0.06601409 0.09949796 0.10948163 0.09819263 0.0059180534 0.0900485 0.09378135
0.015665716 0.09672879 0.0208525 -0.077047125 -0.09857041 0.09301886 0.037585724 0.0324003
0.019471448 -0.0767193 0.051567115 0.025211632 0.048563287 0.061132714 -0.11329007 0.0067807497
00000000: 7472 d43d ff5e 173d e40f 843c f478 c3bd
00000010: 4ace cf3d 86e2 7f3d 7c9e 94bd ece4 d03d
00000020: 9e47 b2bc b99c 7b3c a7cd f2bd 3a39 84bc
00000030: 9ecb df3d 406d 683c b692 ad3c 22a4 f5bd
00000040: db8d 79bd ab2c 6cbd 6c46 8c3d 0e08 fb3d
00000050: b2de a43d f6a0 bcba 94ea 843d 7b40 913d
00000060: 8e8e 0fbb e497 96bd 2cba de3c 76dd afba
00000070: 2eda b3bd 692e bdbd 2986 e2bd 950f cabd
00000080: cd5f cebc c646 3a3c 05c5 47bd e516 a83d
00000090: 523d ba3d 9490 c73d 3ec4 e73d d2c4 ec3a
000000a0: f38e a63d 1888 f1bd d92d 833c 53cc d43a
000000b0: d2a5 853c 5657 ab3d 1560 9b3c 9f69 ca39
000000c0: ba02 fb3d d88c a13d a565 953d 6684 ffbd
000000d0: 88d2 fcbd 16fd 933d e372 ac3d 83c9 60ba
000000e0: bcc8 373c 6ae8 f5bd 0fbe b2bd 4a85 ed3d
000000f0: 1ba0 473d 31bd 1c3d 82fe efbd 85aa 133c
00000100: 53cb a43d 7498 6cbd 54c4 5a3c e8d8 883c
00000110: 0642 523c e495 7a3d cee9 e43d 2493 f7bd
00000120: ec91 b4bd 5f67 4a3c 62df f8bd 46ad bb3d
00000130: 52a8 903c 4136 363c 120b 6f3c c20b e53d
00000140: d66a fe3d 56a4 843d 00fa d43d 1402 a63d
00000150: 50f0 f53d 2272 ac3d 0cf4 d83c bf13 9b3d
00000160: c46f c63d 4687 b33d ee43 4e3c d59c b73d
00000170: 02e6 883d e521 eabb 8cb2 553d b003 78bd
00000180: 8255 9dbb d5a5 5d3c 3800 57bd 0f95 4a3c
00000190: d815 f43d 9ef2 f53d 64bf 723d 2fe5 833d
000001a0: d620 903d 4f3d 4ebd 9f8f 0e3c 0357 ad3d
000001b0: 9fa8 543c d260 913d 03c1 2c3b a007 b03d
000001c0: 9acb b83d 329c 393d e59c 4b3c 52e0 d93d
000001d0: e882 3bbd 7a89 ed3c f0d2 cc3d 2c66 b83d
000001e0: c993 ab3d 5025 b1bc 7c1d f5bd 7447 5e3d
000001f0: 89f6 4f3c f9eb 0a3c 40f7 d63c 5267 a83c
00000200: 3edf 943d 9e6c efbd cba2 093d cc20 4ebd
00000210: d471 95bd 9c6a 09bd 003f 4b3d 6029 9a3d
00000220: 740e bbbd 726c e0bd 746b 32bd 200c 973d
00000230: d814 4e3d f221 cf3d 33a9 1a3d 35df 75bc
00000240: e848 92bd 1cc0 4c3d ddd3 07bd d63a dbbd
00000250: 6bb7 abbc f4c4 893d bca6 893d 92a7 b2bd
00000260: e061 c2bd c3e4 e0bb 718e 29bd 6092 66bd
00000270: c4ee 413d cca3 9a3d e8d3 80bd 924c ec3d
00000280: ddbd fb3c 2e0c 523d 46e6 923d 6c23 d7bd
00000290: 9cb2 a73d a82c ce3c 2a4d e53d 5c66 9ebd
000002a0: 98ee c93d d030 ed3c b367 1b3d 9a10 bc3d
000002b0: ee62 dd3d 94ba 5d3d d18e b7bc 765e 353d
000002c0: 2479 e8bd cc00 ee3d d0b8 dbbd 009b a23a
000002d0: ec44 50bd 50e5 ff3d 700a 60bd 9941 63bd
000002e0: 5071 c5bd 24c7 883d 303c 8c3d 1985 06bd
000002f0: 9b87 0dbd d6a9 94bd dc34 fd3d 188f 59bd
00000300: 6b3f a53c fe88 f7bd d84c d33d 9017 d6bd
00000310: 6889 b33c aca8 c53d cd36 89bd 4338 ebbd
00000320: 8f84 e7bd 12ae af3d 98a8 e43d bb48 bb3c
00000330: 5006 9c3c 36de 523d 9bd6 df3c fb38 c03c
00000340: 8904 99bd d1de a6bd f0df c53d fa41 f9bd
00000350: 002f f93d 2850 bb3d 4907 c5bd 3908 a93c
00000360: 1f71 c03d 0acd dcbd a73a b33d 7a4c d53d
00000370: cc93 60bd 4779 85bd 55fc 58bd 7fec 35bd
00000380: fde6 95bd 6c9d 673d a61b a4bd f408 be3c
00000390: 18fb 9f3c 5408 c03c 6c18 4c3d e2e1 9d3d
000003a0: c7b6 a83c 6532 873d 96c5 cb3d e837 e03d
000003b0: 3819 c93d 3bec c13b 596b b83d 7010 c03d
000003c0: 6355 803c be19 c63d ddd2 aa3c e2ca 9dbd
000003d0: 48df c9bd ac80 be3d 7df3 193d 2db6 043d
000003e0: 9682 9f3c 021f 9dbd 0a38 533d a088 ce3c
000003f0: 4cea 463d 4c66 7a3d a004 e8bd 0d31 de3b

lstm.weight_hh_l0 f4 [256, 64]
0.040563658 0.095516816 0.11148015 0.027797356 -0.09278987 -0.10486519 0.11042759 0.03878863
0.094891325 -0.00021027029 -0.07576032 0.102751255 0.046692446 0.11855064 0.035165623 -0.06932473
-0.08912557 -0.017108485 -0.079164356 0.10458678 0.016693681 -0.055665404 -0.046855554 0.029182866
-0.021276578 -0.07699153 -0.06404245 0.07164715 0.082205325 -0.07353397 0.019226015 -0.0017306358
-0.11959517 -0.09832618 0.09145133 -0.0047002137 -0.04080881 -0.02613084 9.685755e-07 0.056458637
-0.037028164 -0.113003254 -0.07134433 -0.0831732 0.10288888 0.06190893 -0.07693279 0.030500218
-0.048309878 0.03897272 -0.058207124 0.025728777 -0.070974335 0.036519483 0.11512877 0.06690131
-0.055009156 0.11779797 -0.019399658 -0.07206091 -0.0808782 0.11696562 0.011307806 -0.106897324
0.06299278 0.056295425 -0.061950967 -0.08207592 0.051129743 0.06818628 -0.10936445 0.04742135
0.05705975 0.02184245 -0.07827769 -0.06771904 0.07569772 0.053936258 0.06636371 0.08232485
-0.022483274 0.029137358 -0.10262577 0.06914052 0.0791433 -0.05693233 0.07083815 0.075794935
0.1208304 0.06809558 -0.11465463 -0.040551543 0.018371776 0.10125132 0.12132095 0.12073851
-0.028591275 -0.09938456 0.057182893 -0.03722021 0.12100713 -0.037637636 0.023521319 0.04408054
-0.08328259 0.0045382977 0.057791874 0.09745082 0.008247793 -0.10230479 -0.026838645 0.11993313
-0.027242005 0.018178403 0.019964904 -0.00064763427 -0.107918024 -0.040506423 -0.07258518 0.11755781
-0.039222375 -0.002791062 0.07213329 0.065520525 0.0537235 0.045681417 0.018858016 0.07103565
0.028388007 0.06666773 0.08935914 0.05680035 0.07193941 0.02748761 -0.057610806 0.10642998
0.006583247 -0.11859787 0.0097694015 -0.057040233 0.11776027 0.10689148 -0.017971683 0.123359986
0.12014197 0.016392209 0.05272016 -0.10687743 0.07517537 0.06569404 0.046156738 -0.062379535
-0.10861478 -0.11568658 -0.13429737 -0.16488363 0.12444629 0.09745185 -0.034275338 -0.09413512
0.0528017 0.06904257 -0.024798082 -0.020954743 0.070045315 -0.0069917543 -0.07484649 -0.027460929
0.0030144807 0.111587554 0.11405373 0.14817551 0.0011025153 -0.027363148 -0.0916797 -0.027027758
-0.017756592 -0.028897816 -0.03422799 0.062151223 0.038244918 0.018200455 -0.13770144 -0.101660565
0.06544368 -0.021930575 -0.0042779082 -0.067087024 -0.03228228 -0.05267612 0.02758728 -0.0465508
-0.05542411 -0.07556529 -0.080529645 0.07378523 0.043785676 -0.082182646 -0.0039554387 -0.004228398
-0.09455043 0.08183724 0.09782915 -0.040640295 0.108474076 -0.004679069 0.03348489 -0.09377211
0.08682549 0.051856697 0.056910187 0.08360618 0.072675884 -0.021740466 -0.022266686 -0.112888545
-0.06617685 0.102978945 -0.091777205 0.10437639 0.07537313 0.0733508 0.09571493 -0.033558592
-0.10395923 -0.08709802 0.060442135 -0.03565511 0.11257288 0.10409099 0.053183556 -0.10040535
-0.014779285 -0.12039535 -0.09625198 -0.033070013 -0.033372894 0.040794253 0.01626493 -0.110040605
-0.07508527 -0.11628495 -0.037692815 0.09932481 0.034019887 0.039945662 0.013133377 0.11282475
-0.029813409 0.039978176 -0.018894047 -0.12460077 0.052313596 0.0742843 0.09051964 0.10211915
00000000: 1426 263d 529e c33d b44f e43d 48b7 e33c
00000010: 9e08 bebd 90c3 d6bd dc27 e23d d4e0 1e3d
00000020: 6256 c23d 007c 5cb9 3a28 9bbd 406f d23d
00000030: 9440 3f3d aeca f23d d409 103d 20fa 8dbd
00000040: 7887 b6bd 1827 8cbc ec20 a2bd 9831 d63d
00000050: 30c1 883c 6801 64bd 9ceb 3fbd e810 ef3c
00000060: 384c aebc bcad 9dbd b028 83bd bebb 923d
00000070: 445b a83d fa98 96bd e07f 9d3c 80d6 e2ba
00000080: 50ee f4bd 3c5f c9bd d64a bb3d 4004 9abb
00000090: 2427 27bd 5810 d6bc 0000 8235 2c41 673d
000000a0: d8aa 17bd 406e e7bd fa1c 92bd b656 aabd
000000b0: 68b7 d23d 3894 7d3d f08e 9dbd 98db f93c
000000c0: 94e0 45bd dca1 1f3d 986a 6ebd 28c5 d23c
000000d0: fe5a 91bd 7495 153d a2c8 eb3d 8e03 893d
000000e0: 4851 61bd 1040 f13d 08ec 9ebc ac94 93bd
000000f0: 78a3 a5bd ac8b ef3d 6044 393c fcec dabd
00000100: 5c02 813d 0896 663d 4cc0 7dbd 6c17 a8bd
00000110: 6c6d 513d 40a5 8b3d 78fa dfbd e43c 423d
00000120: 7cb7 693d f0ee b23c 0e50 a0bd 48b0 8abd
00000130: 6807 9b3d 44ec 5c3d b2e9 873d ee99 a83d
00000140: d82e b8bc 78b1 ee3c 762d d2bd 8c99 8d3d
00000150: e215 a23d e031 69bd 9813 913d 603a 9b3d
00000160: ee75 f73d b275 8b3d 0cd0 eabd 6019 26bd
00000170: 6880 963c da5c cf3d 1e77 f83d c045 f73d
00000180: 4038 eabc 228a cbbd 9c38 6a3d 3874 18bd
00000190: 96d2 f73d ec29 1abd c8af c03c cc8d 343d
000001a0: 1090 aabd 00b6 943b 2cb7 6c3d 4c94 c73d
000001b0: c021 073c 2c85 d1bd b8dc dbbc 809f f53d
000001c0: a02a dfbc e0ea 943c 708d a33c 00c6 29ba
000001d0: 2004 ddbd 10ea 25bd 8aa7 94bd 26c2 f03d
000001e0: a4a7 20bd 40ea 36bb 9eba 933d a02f 863d
000001f0: 2c0d 5c3d 701c 3b3d 207c 9a3c 247b 913d
00000200: f78d e83c 1789 883d ed01 b73d 7ca7 683d
00000210: f854 933d b22d e13c 4ff9 6bbd f6f7 d93d
00000220: 47b8 d73b 71e3 f2bd d70f 203c 05a3 69bd
00000230: 4c2c f13d ece9 da3d 5a39 93bc 29a4 fc3d
00000240: fe0c f63d f448 863c 18f1 573d 8ee2 dabd
00000250: 8bf5 993d 998a 863d d90e 3d3d af81 7fbd
00000260: 6d71 debd 16ed ecbd 4085 09be 41d7 28be
00000270: b2dd fe3d d694 c73d 4c64 0cbd eac9 c0bd
00000280: 9846 583d 3166 8d3d 5925 cbbc 48a9 abbc
00000290: eb73 8f3d 161b e5bb 1e49 99bd bef5 e0bc
000002a0: 988e 453b 0488 e43d 0195 e93d 52bb 173e
000002b0: 4682 903a ae28 e0bc 91c2 bbbd 5169 ddbc
000002c0: 4676 91bc 1dbb ecbc a632 0cbd 4892 7e3d
000002d0: b4a6 1c3d 1f19 953c 9b01 0dbe 6a33 d0bd
000002e0: 5607 863d c0a7 b3bc b22d 8cbb ec64 89bd
000002f0: 6d3a 04bd eac2 57bd b8fe e13c 0dac 3ebd
00000300: 6404 63bd fac1 9abd baec a4bd b61c 973d
00000310: 9c58 333d 604f a8bd a09c 81bb 608e 8abb
00000320: a8a3 c1bd 489a a73d a65a c83d 7076 26bd
00000330: a827 de3d e052 99bb 7427 093d 980b c0bd
00000340: 90d1 b13d b067 543d a81a 693d b839 ab3d
00000350: 18d7 943d 1019 b2bc a068 b6bc 1c32 e7bd
00000360: ba87 87bd a0e6 d23d b0f5 bbbd 4ac3 d53d
00000370: 3a5d 9a3d f238 963d 3006 c43d bc74 09bd
00000380: 94e8 d4bd 7260 b2bd 2c92 773d 180b 12bd
00000390: 9c8c e63d a82d d53d 00d7 593d 52a1 cdbd
000003a0: d024 72bc d691 f6bd c21f c5bd 6c74 07bd
000003b0: 04b2 08bd e017 273d 083e 853c f85c e1bd
000003c0: 4ec6 99bd ce26 eebd c863 1abd ce6a cb3d
000003d0: 7058 0b3d 109e 233d 602d 573c aa10 e73d
000003e0: 403b f4bc 28c0 233d b0c7 9abc b02e ffbd
000003f0: c846 563d 5e22 983d 5c62 b93d d823 d13d

lstm.bias_ih_l0 f4 [256]
0.047294512 -0.065813676 0.15835801 -0.063563734 0.024505869 -0.053747647 -0.053433105 -0.116515934
0.094331466 -0.001045415 0.043517824 -0.056444436 -0.0828678 0.06824193 0.043557554 -0.027774315
0.094107375 -0.05462647 0.036922846 0.023652166 0.08300016 -0.016944576 -0.07617463 0.09884338
0.1953077 -0.049378887 0.098433174 -0.0009173317 0.03670431 0.029215068 -0.08672963 0.024079353
0.07914515 0.06317661 -0.040227376 0.12129035 0.0107667 -0.11530641 0.055861905 -0.04410384
0.062266633 0.091946855 0.1770425 0.006287125 0.036759127 -0.06986986 0.113584355 0.15959786
-0.12221232 0.034558278 -0.0331841 0.0113475025 -0.028917044 0.08560853 -0.07935235 0.017822858
0.0813709 -0.09702255 0.06695426 0.06349282 -0.061492737 -0.06460883 0.08327435 0.00033530797
-0.044389915 -0.12469597 -0.043092497 -0.09657337 0.16315885 0.11044593 -0.09711343 -0.029418662
0.069013774 0.14461486 0.11411987 0.07488406 0.07016909 0.1199776 0.10268542 0.045608044
-0.071064666 0.099262744 -0.10273185 0.086475 -0.004576415 -0.026188076 -0.05518727 0.038002677
-0.050635487 0.051632687 0.104615144 0.08873132 -0.022156164 0.029985502 0.023285791 0.023777127
0.03144009 0.08049725 0.12288378 0.13984585 -0.12387878 0.003528431 0.10228952 0.018773273
0.120368384 0.017371595 0.19585933 0.07104463 -0.0020876664 -0.0136213945 -0.036625113 0.11724557
-0.060269445 0.07612219 -0.012381942 -0.10771541 -0.013456628 0.08734773 0.12412706 -0.052110232
-0.08015641 -0.018202767 0.08380151 -0.0635561 0.117104605 0.1880019 0.01016809 -0.027886616
0.006714359 0.115857854 0.13368057 -0.02696295 0.09862569 -0.012798005 -0.008357525 0.039580494
0.11489095 -0.024836853 -0.06761736 -0.0044175684 0.08662011 0.1087853 0.009551202 0.0695606
0.117860794 -0.05391857 -0.08747192 -0.07849002 0.10218805 0.124545574 -0.01617904 -0.02591595
-0.06599866 -0.0291038 -0.11543549 0.007224977 -0.04498416 0.02007471 0.02281949 0.09357509
-0.051308494 -0.047384832 0.011532873 0.106551096 -0.016328335 -0.09639854 0.124235705 -0.017888203
-0.07215662 -0.02622825 0.00872039 0.028826669 -0.0316775 0.10862905 -0.08031957 -0.09943776
0.028454453 0.09865107 0.07145378 0.043629557 0.06308937 0.057913527 -0.055169508 0.10471422
-0.10977128 0.027112156 -0.05557123 -0.0030943914 -0.032571122 0.06753403 -0.06738579 -0.112731606
0.09177843 0.025645288 0.020211518 0.020513177 0.024112632 0.08783135 -0.0604531 -0.06870929
-0.09723348 -0.10421638 0.04429558 -0.002386668 -0.011545911 0.09764332 0.025465393 0.003803204
0.076352015 0.09486003 -0.07879485 -0.087111 -0.07507007 -0.023360863 0.08144252 0.19992566
-0.029471098 -0.0027509183 -0.011426264 0.06095992 0.05005113 -0.057149097 -0.124414325 0.08322811
0.025701975 -0.0069606155 -0.11558051 0.05196123 0.11503673 0.12748404 -0.048800994 -0.0254764
0.15561059 -0.12442282 0.04339215 -0.06463912 -0.121167526 0.13000333 0.12346203 -0.11941911
0.054205213 -0.096111804 -0.064901985 0.01424855 0.055559978 -0.06542675 -0.058894023 0.043341715
0.081985965 0.04040572 -0.10426639 -0.07614416 -0.017080285 0.06534535 0.05753757 0.059580553
00000000: e4b7 413d 52c9 86bd 9a28 223e b42d 82bd
00000010: 88c0 c83c 7e26 5cbd acdc 5abd e89f eebd
00000020: db30 c13d 4e06 89ba bf3f 323d 4832 67bd
00000030: 98b6 a9bd 6dc2 8b3d 6869 323d f686 e3bc
00000040: 5ebb c03d 01c0 5fbd 693c 173d 30c2 c13c
00000050: fdfb a93d 5acf 8abc 7201 9cbd 666e ca3d
00000060: befe 473e 8441 4abd 5597 c93d 1779 70ba
00000070: 4257 163d 7054 ef3c 4e9f b1bd 1042 c53c
00000080: da16 a23d bd62 813d 76c5 24bd 1367 f83d
00000090: d066 303c c425 ecbd 74cf 643d 3aa6 34bd
000000a0: 4c0b 7f3d a24e bc3d a14a 353e 3a04 ce3b
000000b0: bd90 163d ee17 8fbd ea9e e83d 9f6d 233e
000000c0: 744a fabd fb8c 0d3d 0dec 07bd e0ea 393c
000000d0: 70e3 ecbc 8653 af3d 7c83 a2bd 3e01 923c
000000e0: c9a5 a63d c2b3 c6bd 511f 893d 8608 823d
000000f0: cfdf 7bbd a251 84bd be8b aa3d 46cc af39
00000100: 33d2 35bd 9a60 ffbd c281 30bd 42c8 c5bd
00000110: 1d13 273e 7a31 e23d 68e3 c6bd 68ff f0bc
00000120: 1857 8d3d eb15 143e aeb7 e93d d05c 993d
00000130: d0b4 8f3d d1b6 f53d bc4c d23d 80cf 3a3d
00000140: 5a8a 91bd 444a cb3d 1465 d2bd ce19 b13d
00000150: c0f5 95bb 6088 d6bc 0c0c 62bd b2a8 1b3d
00000160: 2867 4fbd cc7c 533d 7740 d63d c4b8 b53d
00000170: d880 b5bc 28a4 f53c d8c1 be3c 40c8 c23c
00000180: 53c7 003d bedb a43d 7eaa fb3d c033 0f3e
00000190: 28b4 fdbd 403d 673b 2b7d d13d 68ca 993c
000001a0: b383 f63d e04e 8e3c 598f 483e d97f 913d
000001b0: 3bd1 08bb 452c 5fbc 3704 16bd 721e f03d
000001c0: 18dd 76bd f3e5 9b3d a1dd 4abc e699 dcbd
000001d0: 3079 5cbc 5ee3 b23d 5436 fe3d 8a71 55bd
000001e0: 0b29 a4bd f81d 95bc 20a0 ab3d b329 82bd
000001f0: 8ad4 ef3d 9283 403e 1098 263c 7972 e4bc
00000200: 2004 dc3b e246 ed3d 8fe3 083e 68e1 dcbc
00000210: 44fc c93d b9ae 51bc 00ee 08bc 281f 223d
00000220: f24b eb3d a876 cbbc f87a 8abd 40c1 90bb
00000230: e265 b13d d4ca de3d a57c 1c3c ca75 8e3d
00000240: 0061 f13d b8d9 5cbd 7a24 b3bd 60bf a0bd
00000250: f847 d13d c011 ff3d e889 84bc b04d d4bc
00000260: 4e2a 87bd 186b eebc 7169 ecbd 80bf ec3b
00000270: 5041 38bd b873 a43c f0ef ba3c 4ca4 bf3d
00000280: db28 52bd 9916 42bd 60f4 3c3c 7637 da3d
00000290: 00c3 85bc 996c c5bd 4a6f fe3d 488a 92bc
000002a0: dac6 93bd a0dc d6bc f7df 0e3c e825 ec3c
000002b0: 44c0 01bd e878 de3d 967e a4bd 06a6 cbbd
000002c0: 5019 e93c 9209 ca3d 5c56 923d e8b4 323d
000002d0: 0035 813d bc36 6d3d 6cf9 61bd 6974 d63d
000002e0: c4cf e0bd 501a de3c a89e 63bd 46cb 4abb
000002f0: 4c69 05bd 484f 8a3d 9001 8abd d4df e6bd
00000300: 54f6 bb3d 1116 d23c a092 a53c 400b a83c
00000310: db87 c53c ece0 b33d ab9d 77bd 75b7 8cbd
00000320: 5922 c7bd 666f d5bd 486f 353d a569 1cbb
00000330: 102b 3dbc 39f9 c73d cd9c d03c 2d3f 793b
00000340: 725e 9c3d fa45 c23d 325f a1bd 4167 b2bd
00000350: 56be 99bd 485f bfbc 56cb a63d 50b9 4c3e
00000360: 5f6d f1bc c048 34bb 3a35 3bbc 1cb1 793d
00000370: 6a02 4d3d 2c15 6abd f0cc febd 8073 aa3d
00000380: f38c d23c e015 e4bb 79b5 ecbd 4cd5 543d
00000390: 6198 eb3d 2d8b 023e 8de3 47bd e2b3 d0bc
000003a0: 6258 1f3e 64d1 febd f8bb 313d 8461 84bd
000003b0: ae26 f8bd 981f 053e a9d9 fc3d 0292 f4bd
000003c0: 4906 5e3d 44d6 c4bd 55eb 84bd c072 693c
000003d0: dc92 633d 76fe 85bd dc3a 71bd 1587 313d
000003e0: 42e8 a73d 7880 253d 9e89 d5bd 78f1 9bbd
000003f0: f4eb 8bbc c8d3 853d 84ac 6b3d bd0a 743d

lstm.bias_hh_l0 f4 [256]
0.10247126 0.062497526 -0.03379262 0.094464034 0.08769478 0.110226676 -0.00623468 -0.011308089
0.07288883 -0.03552933 0.029257713 0.060006626 0.07153994 -0.013732835 0.12281139 0.115878716
0.008192104 0.0038605502 -0.10809479 -0.095003426 -0.016327785 0.15415451 -0.052127272 0.081316456
0.18672954 -0.017749935 0.038773444 0.16076249 -0.11776847 0.096537724 -0.033756837 0.001033014
-0.015699748 -0.09745211 0.08786755 -0.011797612 0.047752813 0.077098325 0.046242863 -0.11106882
0.05252506 0.074105605 -0.0013909542 -0.025293898 0.18315545 0.12223396 -0.07005359 -0.0016567984
0.08558312 0.11243461 0.14761132 0.029614732 0.095041186 0.03277577 0.01100941 -0.0038955286
0.03925795 -0.07160108 -0.0022210616 -0.09640677 -0.00072126277 0.015440585 -0.05574082 0.031531963
0.05603615 0.10084492 0.06548151 0.016636372 -0.05744173 -0.07746218 -0.0057968646 -0.07322721
0.1109869 0.024611121 -0.043180317 -0.121648744 -0.014612934 0.028455326 0.09382747 -0.094244465
0.06072937 0.11542229 0.0438084 -0.025130376 0.10480954 0.10240045 0.046345383 -0.08561246
0.062506706 0.029740006 0.14662395 -0.07584262 -0.0037923902 -0.04227473 -0.12068027 -0.042822674
-0.123127654 -0.04447399 -0.11641957 0.08768238 -0.107854635 -0.019409895 -0.08413834 -0.0784879
-0.048477974 -0.08849479 0.07210752 -0.08091157 0.027751986 -0.10075659 0.13818203 -0.10874511
0.012451634 0.056781467 -0.061201856 0.032759666 0.0026472062 0.056859393 -0.06558676 0.033596464
0.03948258 0.021539778 0.061632723 -0.060913894 0.018832618 0.104228415 -0.060816273 -0.005844435
0.05285698 -0.0589204 0.026876183 -0.013567209 0.04626289 -0.061075184 -0.00019520521 -0.10204987
-0.03547342 -0.10690917 -0.007864073 -0.021910548 -0.10585418 0.058065325 -0.07314489 0.10820693
-0.121083215 -0.044096768 0.09579201 -0.047915027 0.017453076 0.080133304 -0.030627966 0.08630097
0.062377706 0.059743613 0.027718084 0.07562895 -0.024816737 -0.058484495 0.054814026 0.10219079
0.08787157 -0.0523025 -0.030549437 0.09926355 -0.08372225 -0.06951933 0.039582387 0.11493501
0.123686016 -0.09044504 0.14037375 -0.09938419 0.048154697 0.103104636 0.076804556 0.09529272
0.0604351 0.035751566 0.12089853 0.028963625 -0.0062963367 -0.07245165 -0.117492795 0.06370274
0.03254561 -0.11467229 -0.052402735 0.08267664 0.031607687 0.083539754 0.023938045 -0.002404973
-0.03093962 -0.0519235 0.036660284 -0.030812934 0.10932354 -0.09997009 -0.044385295 -0.01428715
0.015972754 0.105084494 0.07846539 -0.030811649 0.1784291 0.02509083 0.045250896 0.07904284
-0.097385556 -0.06012589 0.10543069 0.09335246 0.06870483 0.03796211 0.077601805 0.031515375
-0.089362815 0.05879207 0.018659158 -0.058906823 -0.079637274 0.019904971 -0.09004596 0.052802376
0.023724847 -0.04149894 0.1167533 0.037690006 0.013968944 0.022073573 0.020603556 -0.054952737
0.07446926 0.018976107 0.10118252 0.10101347 0.051819727 0.008365635 -0.06397284 0.062120035
-0.07013146 -0.0701555 0.17808703 0.056787103 0.081574455 -0.10376173 -0.03294348 0.14005005
0.008686043 -0.08447331 -0.02783591 0.13197517 0.09205048 0.03739766 0.01641886 -0.041568648
00000000: 74dc d13d 68fd 7f3d 216a 0abd 5c76 c13d
00000010: 5299 b33d 86be e13d 494c ccbb 9045 39bc
00000020: bd46 953d 3487 11bd dfad ef3c 82c9 753d
00000030: 8883 923d afff 60bc 8a84 fb3d d251 ed3d
00000040: 2d38 063c 4901 7d3b cd60 ddbd 2891 c2bd
00000050: d9c1 85bc aeda 1d3e 6883 55bd 3e89 a63d
00000060: 0736 3f3e 5068 91bc e7d0 1e3d ec9e 243e
00000070: 9830 f1bd 92b5 c53d 9c44 0abd 3366 873a
00000080: c29c 80bc f994 c7bd e7f3 b33d c54a 41bc
00000090: 7498 433d bae5 9d3d 2869 3d3d 0d78 e3bd
000000a0: 8424 573d aec4 973d ae50 b6ba 2635 cfbc
000000b0: 1a8d 3b3e cc55 fa3d 4278 8fbd ee28 d9ba
000000c0: 3446 af3d 1e44 e63d 6c27 173e 989a f23c
000000d0: f4a4 c23d e33f 063d d060 343c 204c 7fbb
000000e0: f2cc 203d 96a3 92bd 3b8f 11bb ea70 c5bd
000000f0: 2013 3dba 82fa 7c3c 7c50 64bd a927 013d
00000100: 2986 653d c887 ce3d 2b1b 863d 0049 883c
00000110: 0548 6bbd 7ea4 9ebd a0f3 bdbb 26f8 95bd
00000120: 1a4d e33d 439d c93c d8dd 30bd fa22 f9bd
00000130: 166b 6fbc 251b e93c 9e28 c03d 3e03 c1bd
00000140: 5cbf 783d 8662 ec3d 7070 333d 38de cdbc
00000150: 62a6 d63d 54b7 d13d a8d4 3d3d 9655 afbd
00000160: 8403 803d 50a1 f33c 9724 163e 6053 9bbd
00000170: c089 78bb 4428 2dbd 3827 f7bd d466 2fbd
00000180: 5a2a fcbd 5c2a 36bd 626d eebd d292 b33d
00000190: e4e2 dcbd 8001 9fbc b950 acbd 44be a0bd
000001a0: d790 46bd c23c b5bd 1cad 933d f7b4 a5bd
000001b0: 2258 e33c 7959 cebd 977f 0d3e c2b5 debd
000001c0: f001 4c3c af93 683d ccae 7abd 002f 063d
000001d0: c07c 2d3b 65e5 683d 5a52 86bd 729c 093d
000001e0: 7cb8 213d 3074 b03c 9872 7c3d d980 79bd
000001f0: dd46 9a3c b575 d53d 7c1a 79bd ad82 bfbb
00000200: 9080 583d 8456 71bd 712b dc3c 0049 5ebc
00000210: 287e 3d3d f929 7abd 00b0 4cb9 86ff d0bd
00000220: 944c 11bd 32f3 dabd 50d8 00bc c07d b3bc
00000230: 14ca d8bd e8d5 6d3d fdcc 95bd 989b dd3d
00000240: 7afa f7bd d09e 34bd 9a2e c43d 8c42 44bd
00000250: c1f9 8e3c ee1c a43d 80e7 fabc 90be b03d
00000260: c47f 7f3d b8b5 743d 0911 e33c 5ae3 9a3d
00000270: 784c cbbc 708d 6fbd ac84 603d 6849 d13d
00000280: 02f6 b33d 253b 56bd d042 fabc b04a cb3d
00000290: 9276 abbd 2760 8ebd 2421 223d 0c63 eb3d
000002a0: 184f fd3d 403b b9bd 23be 0f3e f089 cbbd
000002b0: dc3d 453d 8628 d33d b54b 9d3d d428 c33d
000002c0: cc8a 773d 3c70 123d a699 f73d 2045 ed3c
000002d0: 8051 cebb 8861 94bd 10a0 f0bd 9576 823d
000002e0: 8c4e 053d 4ed9 eabd 40a4 56bd 5f52 a93d
000002f0: 1077 013d e416 ab3d b819 c43c c09c 1dbb
00000300: 1675 fdbc bcad 54bd 1829 163d 686b fcbc
00000310: 05e5 df3d 1ebd ccbd 5bcd 35bd a714 6abc
00000320: 4bd9 823c 8a36 d73d 76b2 a03d b668 fcbc
00000330: 1eb6 363e 498b cd3c 0159 393d 36e1 a13d
00000340: 1472 c7bd 9146 76bd 0cec d73d 932f bf3d
00000350: 1eb5 8c3d 287e 1b3d b2ed 9e3d 4416 013d
00000360: da03 b7bd f4cf 703d 17db 983c 4848 71bd
00000370: de18 a3bd c00f a33c 046a b8bd 4e47 583d
00000380: 9c5a c23c cbfa 29bd 5b1c ef3d d660 1a3d
00000390: ffdd 643c a3d3 b43c cac8 a83c 1f16 61bd
000003a0: 5783 983d c873 9b3c c838 cf3d 26e0 ce3d
000003b0: ec40 543d 0410 093c 3104 83bd 9471 7e3d
000003c0: 15a1 8fbd b0ad 8fbd 725c 363e 9899 683d
000003d0: 8210 a73d 0881 d4bd beef 06bd 4869 0f3e
000003e0: e84f 0e3c 5800 adbd 2208 e4bc 8024 073e
000003f0: f684 bc3d 4a2e 193d d880 863c e343 2abd

lstm.weight_ih_l1 f4 [256, 64]
0.02978348 -0.08752015 0.019866126 0.024093628 -0.09538349 0.02476485 0.061799224 -0.025534723
-0.08387002 -0.08424011 -0.050406855 -0.12801398 -0.01583932 0.0041943276 -0.09644758 0.01982654
0.015709195 0.069230184 -0.021405017 0.010229302 0.019168971 -0.0064324182 0.051885847 0.017055376
-0.1838009 -0.072055265 0.005235701 0.0025602647 0.05559971 -0.05335878 -0.09555255 0.03764364
-0.098866 -0.0022882763 -0.023870993 0.079684734 -0.025457969 0.03946941 -0.042452764 0.025234343
-0.12109446 -0.09424008 -0.07540989 0.010234723 0.061517827 0.09600647 -0.11775379 -0.019916251
-0.12756962 -0.060710706 0.036825255 0.08195348 0.033615068 0.116861716 0.01192554 0.019905232
-0.074397445 0.024598613 -0.059013978 0.040882777 -0.113174275 -0.005391129 -0.05485858 0.07961385
0.14931682 -0.124634065 0.11269217 -0.100213155 -0.033123318 0.051855583 -0.09440603 0.06484585
0.050692 -0.11558565 -0.027702337 -0.082159534 -0.05076983 0.031633206 0.09873742 0.09437558
0.027054837 0.0061829532 -0.055587783 -0.024444764 -0.025328651 0.0024093166 -0.110595025 0.034128528
-0.068082266 0.1201417 0.018168297 0.074642904 0.11830232 0.035425752 0.07768048 0.12262826
-0.0912376 0.15036179 -0.09601317 0.06333325 0.15613748 0.032060243 0.120080076 -0.15509956
-0.07972708 -0.10568966 0.06410736 0.0079760365 0.04992093 0.14721246 0.054442346 0.15794583
0.021299904 0.051029366 0.054091968 0.0019624233 0.056069896 0.1332377 -0.14628725 -0.07469734
0.07634488 -0.062858745 0.014418567 0.08653397 -0.1189022 0.030316276 -0.07039508 0.057739716
0.042125195 0.04428257 -0.044341814 -0.031373322 0.06912375 -0.09622275 0.008309603 -0.041748855
0.046229962 0.026671454 -0.11931852 0.0042391666 0.022893049 0.15802984 -0.08692165 -0.07525933
0.033747703 0.0636802 0.015385069 -0.10806906 -0.0030309139 0.0059210444 -0.10930252 0.011958035
-0.0044011706 -0.0482319 -0.13512388 -0.050767407 -0.075955756 -0.009458065 0.063528195 -0.012404964
-0.09609017 0.06674991 0.04221039 -0.035478886 0.038121298 0.09344757 -0.029286845 -0.062115457
0.040735412 -0.10529137 0.14186151 0.14133361 -0.0048832865 0.11794501 -0.12653737 -0.085453354
0.053771075 0.100023106 -0.078669325 0.04534711 0.069307834 0.04187102 0.008108362 0.015908146
-0.068268105 0.06736402 -0.022790955 -0.14317459 0.083602734 -0.04319806 -0.024459332 0.09231871
0.07672037 0.113825135 0.004970768 -0.10725959 0.032617252 -0.06638597 -0.026066016 0.08020551
-0.08308018 -0.038686577 0.10416355 -0.032597728 0.09796208 -0.006799282 -0.035233937 -0.021920973
0.018103296 0.06640226 -0.005311057 0.014969726 0.07758275 0.111393966 0.057607394 0.026013326
-0.03180155 -0.1087511 -0.10736795 -0.04282649 -0.0031053554 0.0029337406 0.12008433 -0.099321604
0.063154116 -0.0037417563 0.07275546 0.108298115 0.12543014 -0.020104231 0.04626693 -0.00023468526
0.11277131 0.08110008 0.093504965 0.06797421 0.116694115 0.11496511 0.04470514 0.11051371
-0.008365877 0.120676205 -0.055668816 0.017149776 0.061088935 -0.02165792 -0.044153303 -0.03128517
-0.023556845 -0.05665286 -0.025550451 -0.030239245 0.096517526 0.006038563 -0.099920824 0.017118802
00000000: 7cfc f33c c43d b3bd 49be a23c 0060 c53c
00000010: 6b58 c3bd a8df ca3c 2f21 7d3d 322e d1bc
00000020: 0cc4 abbd 1486 acbd 6b77 4ebd 1916 03be
00000030: 76c1 81bc 9270 893b 4f86 c5bd 456b a23c
00000040: 92b0 803c 8ec8 8d3d 9359 afbc cd98 273c
00000050: 3f08 9d3c 09c7 d2bb 4186 543d b7b7 8b3c
00000060: 4e36 3cbe b691 93bd 3e90 ab3b 1dca 273b
00000070: 86bc 633d bc8e 5abd 0eb1 c3bd 3830 1a3d
00000080: 427a cabd e8f6 15bb 1a8d c3bc c031 a33d
00000090: 3b8d d0bc adaa 213d f3e2 2dbd 41b8 ce3c
000000a0: 5f00 f8bd f100 c1bd 8070 9abd 8aaf 273c
000000b0: 1efa 7b3d 0a9f c43d e628 f1bd 6827 a3bc
000000c0: 9ca1 02be caab 78bd 14d6 163d 3ad7 a73d
000000d0: f4af 093d 3255 ef3d 5763 433c 4c10 a33c
000000e0: b05d 98bd 0883 c93c a4b8 71bd b374 273d
000000f0: eac7 e7bd 11a8 b0bb 64b3 60bd 960c a33d
00000100: 82e6 183e 2540 ffbd 27cb e63d 8e3c cdbd
00000110: 51ac 07bd 8566 543d f357 c1bd e7cd 843d
00000120: 6aa2 4f3d 2bb8 ecbd 03f0 e2bc 4243 a8bd
00000130: 06f4 4fbd d291 013d d836 ca3d fc47 c13d
00000140: 1ba2 dd3c 5f9a ca3b 04b0 63bd 6340 c8bc
00000150: 087e cfbc a0e5 1d3b a57f e2bd 5bca 0b3d
00000160: b76e 8bbd da0c f63d aed5 943c 61de 983d
00000170: 7d48 f23d 981a 113d f216 9f3d 8624 fb3d
00000180: c7da babd 71f8 193e 8ea2 c4bd ddb4 813d
00000190: 81e2 1f3e 9a51 033d 8bec f53d 6bd2 1ebe
000001a0: f447 a3bd d273 d8bd b84a 833d ecad 023c
000001b0: e479 4c3d ddbe 163e f0fe 5e3d 8dbc 213e
000001c0: 237d ae3c 2b04 513d 8a8f 5d3d 009c 003b
000001d0: 8ca9 653d 776f 083e 53cc 15be ebfa 98bd
000001e0: b45a 9c3d 16bc 80bd da3b 6c3c b938 b13d
000001f0: ff82 f3bd d759 f83c 4c2b 90bd 7b80 6c3d
00000200: 788b 2c3d a461 353d c39f 35bd 5081 00bd
00000210: c190 8d3d 6f10 c5bd 0025 083c d900 2bbd
00000220: a15b 3d3d 187e da3c 455d f4bd b5e8 8a3b
00000230: 348a bb3c 93d2 213e fa03 b2bd 9021 9abd
00000240: 083b 0a3d c46a 823d a811 7c3c 5053 ddbd
00000250: 4ca2 46bb 5205 c23b 00da dfbd a2eb 433c
00000260: b237 90bb d08e 45bd ea5d 0abe 7cf1 4fbd
00000270: b18e 9bbd 00f6 1abc 121b 823d 313e 4bbc
00000280: ecca c4bd 2db4 883d cde4 2c3d 4f52 11bd
00000290: 1425 1c3d 7161 bf3d f7ea efbc c76c 7ebd
000002a0: 2dda 263d 00a3 d7bd 2544 113e c2b9 103e
000002b0: fa03 a0bb 278d f13d 0393 01be 2b02 afbd
000002c0: 0f3f 5c3d ead8 cc3d 621d a1bd e4bd 393d
000002d0: 44f1 8d3d f280 2b3d efd8 043c cd51 823c
000002e0: 26d0 8bbd 26f6 893d 19b4 babc 5c9c 12be
000002f0: e937 ab3d 73f0 30bd f05e c8bc 9811 bd3d
00000300: 921f 9d3d 271d e93d d3e1 a23b eaaa dbbd
00000310: ab99 053d 5ef5 87bd 6688 d5bc c942 a43d
00000320: f125 aabd d175 1ebd b353 d53d 3285 05bd
00000330: 58a0 c83d 83cc debb 7651 10bd 9d93 b3bc
00000340: 5d4d 943c e8fd 873d 6008 aebb 9543 753c
00000350: b4e3 9e3d 8522 e43d bbf5 6b3d e619 d53c
00000360: 5842 02bd e6b8 debd bae3 dbbd d46a 2fbd
00000370: 3883 4bbb 0044 403b c6ee f53d 2069 cbbd
00000380: f256 813d 4138 75bb d100 953d 67cb dd3d
00000390: c270 003e a1b1 a4bc 6482 3d3d d815 76b9
000003a0: a5f4 e63d cc17 a63d 887f bf3d 1036 8b3d
000003b0: 53fd ee3d d472 eb3d bd1c 373d 0355 e23d
000003c0: 0811 09bc 1625 f73d fc04 64bd b07d 8c3c
000003d0: 6438 7a3d f36b b1bc 18da 34bd e124 00bd
000003e0: 49fa c0bc d40c 68bd 2e4f d1bc 4bb8 f7bc
000003f0: fbaa c53d 23df c53b 4aa3 ccbd bb3c 8c3c

lstm.weight_hh_l1 f4 [256, 64]
-0.058488395 -0.05873992 -0.10731704 -0.057307094 0.06703797 -0.04454216 0.026255788 -0.08055908
0.1272084 0.15271826 -0.06984778 -0.028243436 -0.05579032 -0.08181812 0.058998685 -0.065796725
0.010973791 -0.1164763 -0.06894319 0.057512645 0.00988557 0.017137105 0.1113415 0.07712698
-0.071011245 -0.102027655 0.040022776 0.055429902 0.07192959 0.0064309593 0.11845272 0.04684661
0.059957642 -0.062021382 0.020244142 -0.026145386 -0.03204898 0.026433302 0.010086426 0.021073597
0.110356174 -0.13097304 0.13025078 0.057099584 -0.0027097089 0.06969353 0.1221115 0.05354988
-0.079890415 0.044592455 0.007818722 0.0012363547 -0.04276509 0.070104 0.0446933 0.07519171
0.08030054 0.11808035 -0.08560666 0.025758684 0.09865495 0.024580562 0.06196439 -0.04179149
0.07950023 -0.054622702 0.109044865 0.019173201 0.09424914 0.08789287 0.09583991 -0.085824095
0.09697788 0.05389584 -0.12416955 0.06346158 -0.15385 -0.123614095 0.120867975 0.051774252
0.0788233 0.0983232 -0.07780381 0.13017628 -0.037341718 0.06988993 0.052642126 -0.04533452
-0.05786487 0.08102863 -0.061466437 -0.0798911 0.07704845 -0.08545128 -0.020755215 0.003206028
0.07559878 0.1467002 0.00042410564 -0.005825077 -0.096144006 0.11143003 -0.019527212 0.0043919613
-0.010974161 0.059039146 0.09838104 -0.011998255 0.053047296 -0.0048839175 0.028541677 0.102983326
0.0031708567 -0.15318957 0.123842485 -0.08667633 0.08341318 -0.09351254 0.041490313 -0.039488785
0.06220171 -0.03897789 -0.13505019 0.0043330677 0.03574158 0.0847466 0.044111278 0.024275184
0.05149697 0.08447464 0.15143968 0.018059583 -0.14367321 -0.07669037 0.027002867 -0.15424132
0.09110971 0.013249503 -0.15119281 0.049511302 -0.08925093 -0.124632195 0.06888943 -0.12644306
-0.019756261 0.078813076 0.092757024 -0.05243645 -0.045326076 -0.082655944 -0.0024359387 0.050804805
-0.095685706 0.050871596 0.057115994 0.068403624 0.0952179 0.03863796 0.036468506 0.037398998
0.027066821 -0.029950168 0.036312547 0.06819685 -0.099961825 0.0005119781 0.003193387 0.054393347
-0.052661926 0.028008193 -0.1074467 -0.13870223 -0.06645361 0.089245096 0.0024228615 0.015207611
0.062840275 0.0871573 0.13781552 0.06378713 -0.0043621445 -0.14533098 0.09548458 -0.079270564
-0.088314086 -0.0084183235 -0.13408896 0.005522862 0.014008139 0.026354657 0.03394588 0.080898136
0.13800967 0.093475156 0.02958357 -0.070133775 -0.13339962 -0.0036340824 -0.06369975 0.047327746
0.07960319 -0.043138277 -0.0038263628 -0.041299257 0.055974953 0.020974606 0.1243489 -0.09311071
0.095843814 0.0743092 -0.15841438 0.09919383 -0.13203025 -0.0001831518 0.078322805 -0.05673554
-0.06456174 0.016273333 -0.13168234 0.08507697 -0.088296 0.07032994 -0.13391109 -0.056757897
-0.057237476 -0.0077388408 -0.02149195 -0.073840044 -0.0820815 -0.06171979 0.065534145 -0.028320434
-0.026549613 0.024019407 0.10800826 -0.05837684 -0.022205293 -0.048354473 -0.08921395 0.14180477
0.08642003 -0.012437043 0.08465389 -0.04094665 -0.11207693 -0.08370402 0.06617208 -0.08192059
-0.010630017 -0.054858 -0.14380746 -0.027849302 0.020216143 -0.0005432821 0.11080604 0.009373091
00000000: 8791 6fbd 4599 70bd 09c9 dbbd d8ba 6abd
00000010: 344b 893d d771 36bd 6116 d73c 29fc a4bd
00000020: eb42 023e 2d62 1c3e 5a0c 8fbd c75e e7bc
00000030: 6484 64bd 4290 a7bd 9ba8 713d 6fc0 86bd
00000040: 6acb 333c 208b eebd 1632 8dbd 6192 6b3d
00000050: 16f7 213c 1d63 8c3c 0307 e43d c0f4 9d3d
00000060: 586e 91bd e0f3 d0bd ecee 233d 770a 633d
00000070: d24f 933d ccba d23b 5797 f23d 3be2 3f3d
00000080: 2596 753d 220a 7ebd 0bd7 a53c d92e d6bc
00000090: cb45 03bd a78a d83c 8941 253c 89a2 ac3c
000000a0: 6b02 e23d cc1d 06be 7660 053e 41e1 693d
000000b0: 5f95 31bb 7bbb 8e3d 9815 fa3d 1e57 5b3d
000000c0: 969d a3bd 94a6 363d 191a 003c 2e0d a23a
000000d0: 722a 2fbd b092 8f3d 5210 373d 1cfe 993d
000000e0: 9c74 a43d 1cd4 f13d 8b52 afbd e003 d33c
000000f0: 9b0b ca3d 2d5d c93c 5fce 7d3d 8e2d 2bbd
00000100: 04d1 a23d 0ebc 5fbd ea52 df3d 1e11 9d3c
00000110: b105 c13d 2d01 b43d b747 c43d 8bc4 afbd
00000120: 579c c63d e2c1 5c3d 9b4c febd 25f8 813d
00000130: db8a 1dbe 6329 fdbd a189 f73d 3d11 543d
00000140: 1c6e a13d ad5d c93d 9b57 9fbd ee4c 053e
00000150: a1f3 18bd 7422 8f3d 459f 573d b1b0 39bd
00000160: b703 6dbd 57f2 a53d 3bc4 7bbd f29d a3bd
00000170: 94cb 9d3d 1501 afbd d706 aabc 391c 523b
00000180: 88d3 9a3d 9438 163e 7f5a de39 4ae0 bebb
00000190: 26e7 c4bd 6d35 e43d 88f7 9fbc 71ea 8f3b
000001a0: f8cc 33bc 08d3 713d 007c c93d 5494 44bc
000001b0: 1f48 593d 4509 a0bb 3cd0 e93c ece8 d23d
000001c0: 26ce 4f3b badd 1cbe 21a1 fd3d 5c83 b1bd
000001d0: 88d4 aa3d 8183 bfbd bff1 293d febe 21bd
000001e0: 38c7 7e3d 48a7 1fbd 994a 0abe 68fc 8d3b
000001f0: c365 123d a08f ad3d 07ae 343d c0dc c63c
00000200: 7dee 523d 0a01 ad3d 0113 1b3e b1f1 933c
00000210: 121f 13be d70f 9dbd 1e35 dd3c 70f1 1dbe
00000220: ba97 ba3d 7214 593c 4ad2 1abe 5dcc 4a3d
00000230: 31c9 b6bd 2a3f ffbd e715 8d3d 4a7a 01be
00000240: e2d7 a1bc c068 a13d 65f7 bd3d 9ac7 56bd
00000250: d6a7 39bd 8547 a9bd 45a4 1fbb b318 503d
00000260: def6 c3bd bc5e 503d 76f2 693d 3317 8c3d
00000270: 9a01 c33d d642 1e3d 0060 153d b12f 193d
00000280: 3dbb dd3c 0e5a f5bc 77bc 143d caaa 8b3d
00000290: c9b8 ccbd 4536 063a 2548 513b 8fcb 5e3d
000002a0: 08b4 57bd 7071 e53c 040d dcbd f507 0ebe
000002b0: d518 88bd 22c6 b63d dfc8 1e3b 5829 793c
000002c0: 67b2 803d 877f b23d 831f 0d3e d4a2 823d
000002d0: 52f0 8ebb a5d1 14be 6b8d c33d 9b58 a2bd
000002e0: 04de b4bd 02ed 09bc 9e4e 09be 20f9 b43b
000002f0: 6582 653c b9e5 d73c d60a 0b3d ecad a53d
00000300: 6852 0d3e e76f bf3d 3e59 f23c 4ca2 8fbd
00000310: e999 08be c929 6ebb 0475 82bd bdda 413d
00000320: ff06 a33d c3b1 30bd b7c3 7abb 6929 29bd
00000330: fe45 653d f0d2 ab3c a3aa fe3d d4b0 bebd
00000340: c349 c43d 6c2f 983d 6137 22be 2226 cb3d
00000350: f032 07be 700c 40b9 b567 a03d 8763 68bd
00000360: f238 84bd a74f 853c bcd7 06be d63c ae3d
00000370: 89d4 b4bd 2509 903d fd1f 09be f87a 68bd
00000380: d871 6abd 1a96 fdbb e30f b0bc 7339 97bd
00000390: 581a a8bd e4cd 7cbd c436 863d 4100 e8bc
000003a0: 937e d9bc 59c4 c43c 6f33 dd3d 8e1c 6fbd
000003b0: e0e7 b5bc 570f 46bd ceb5 b6bd 4535 113e
000003c0: fcfc b03d bdc4 4bbc 055f ad3d adb7 27bd
000003d0: 9788 e5bd 036d abbd 3a85 873d fbc5 a7bd
000003e0: 8629 2ebc c8b2 60bd 4342 13be 3824 e4bc
000003f0: 539c a53c 0b6b 0eba 47ee e23d 9891 193c

lstm.bias_ih_l1 f4 [256]
0.003418656 0.07250164 0.15344726 -0.07637466 0.019248476 0.042682663 0.08469051 0.10322983
0.11269917 0.008400365 0.114469044 -0.005466212 -0.030521924 0.14589106 0.013442011 0.06600528
0.02183849 0.06853897 0.02757395 0.12171857 0.1488994 -0.076375626 -0.04861238 0.011189009
-0.02240184 -0.014171024 0.022359777 0.078014806 0.07869967 0.069642 0.12863992 0.14901401
-0.033925794 -0.046142068 -0.042761486 -0.07624239 -0.065353446 0.03443231 -0.04470496 -0.06055271
0.07563312 0.08977088 -0.004839178 -0.0601683 -0.045254435 0.12645228 0.046383414 0.13653901
0.0598661 0.02652262 0.11084236 -0.026727488 0.027698888 0.07420897 0.0458215 0.011656783
0.021644056 0.0071702753 0.11258311 -0.0878693 0.13312364 -0.07868654 0.052703265 -0.03918292
0.06750139 0.03965936 0.058623966 -0.039549284 -0.078556694 -0.088653095 -0.0052020685 0.14357728
-0.06439688 -0.036409598 -0.027090494 0.10896963 0.14142844 0.109207764 -0.0035660514 -0.07412721
-0.020447074 0.12823795 -0.09045921 0.010043953 0.084826194 -0.017086528 -0.0024678921 0.02198597
0.016825857 0.13151002 -0.035486884 0.062877804 0.054330733 -0.0014391489 0.037031822 0.10165038
0.048428576 -0.09989499 -0.061862852 0.07096234 -0.055225626 0.14994006 0.05360775 0.05057977
0.00621734 0.07134074 0.019886814 0.017413877 -0.08281589 0.114922754 -0.03288582 0.07484305
0.06732093 0.000119951255 0.030094583 0.06877309 -0.0777451 0.15378329 0.032401964 0.07022084
0.13790685 -0.029157178 0.046498843 -0.06328349 -0.017317006 0.13184042 0.054749865 0.005662093
0.005508321 -0.07489867 0.12598208 -0.14498362 0.012402018 -0.15085822 -0.0053038145 0.03274156
-0.040982936 -0.054572538 -0.018001126 -0.07948825 -0.07226398 -0.041184608 0.12431632 -0.06162298
0.017225292 0.05249579 0.037684307 0.1225001 -0.04450432 -0.07471249 0.10711952 -0.04314616
0.039260164 -0.03732169 -0.12487515 -0.028834587 -0.051141683 -0.1468981 -0.11164459 -0.036592085
0.05254369 0.07735554 -0.10892256 -0.061341032 0.03984713 -0.07736425 0.028828347 -0.015536517
-0.12767771 0.06832873 0.11878691 0.030532073 0.05377449 0.037528303 -0.014465942 -0.0013690876
-0.05610928 -0.1154576 0.053499483 0.038287923 0.056421436 0.018337956 -0.056124575 0.08100369
0.06826062 0.1194534 -0.03858179 -0.061004177 -0.025750507 -0.027975187 0.00049967295 -0.07205783
-0.06226656 0.064551115 -0.014766884 0.14291789 -0.017714534 0.16258858 0.17131682 0.032902703
-0.011308273 0.12854014 0.06937479 0.15126136 -0.047688067 0.0911391 0.17201383 -0.025246218
-0.05236757 0.00551507 -0.00043824033 0.04321576 0.012333243 -0.024330715 -0.03424832 0.16994826
0.069784686 0.06147409 0.04906894 0.07146462 0.0899223 0.09904869 0.053066257 0.08906721
0.059925336 -0.03028403 0.08797686 0.16614749 0.14805353 0.061323386 0.12302166 0.022976594
-0.04568523 -0.06836935 0.12083415 -0.049855288 0.010656854 0.0885814 0.028140211 0.1398382
0.066191904 0.1077374 -0.05222572 -0.052017353 0.09631274 -0.0020206694 0.12543494 0.08619227
0.06509029 0.038491495 0.11521695 0.12628253 -0.036978714 0.003645511 0.10455491 -0.004364497
00000000: 880b 603b bd7b 943d 4721 1d3e 516a 9cbd
00000010: fbae 9d3c 04d4 2e3d 3872 ad3d 296a d33d
00000020: d3ce e63d afa1 093c bf6e ea3d e91d b3bb
00000030: 1d09 fabc 7764 153e e13b 5c3c c72d 873d
00000040: a2e6 b23c 295e 8c3d c4e2 e13c 9647 f93d
00000050: 1679 183e d36a 9cbd c61d 47bd 1b52 373c
00000060: 1084 b7bc 952d 68bc da2b b73c 3ac6 9f3d
00000070: 4b2d a13d 77a0 8e3d 2fba 033e 2197 183e
00000080: c6f5 0abd 77ff 3cbd ab26 2fbd f824 9cbd
00000090: 07d8 85bd e508 0d3d 8c1c 37bd 1e06 78bd
000000a0: 8ae5 9a3d ccd9 b73d f891 9ebb 0973 76bd
000000b0: b75c 39bd b57c 013e 89fc 3d3d e2d0 0b3e
000000c0: 2836 753d f745 d93c 5201 e33d 9bf3 dabc
000000d0: c7e8 e23c dffa 973d 53af 3b3d 17fc 3e3c
000000e0: e04e b13c a1f4 ea3b f991 e63d d2f4 b3bd
000000f0: 9051 083e 6926 a1bd 61df 573d 457e 20bd
00000100: 2b3e 8a3d da71 223d af1f 703d 6efe 21bd
00000110: 55e2 a0bd c18f b5bd 1d76 aabb ec05 133e
00000120: 83e2 83bd 3b22 15bd e2ec ddbc 782b df3d
00000130: 9ed2 103e 52a8 df3d 6ab4 69bb 02d0 97bd
00000140: 9f80 a7bc cf50 033e ae42 b9bd 648f 243c
00000150: 5bb9 ad3d 0cf9 8bbc 5cbc 21bb ec1b b43c
00000160: 61d6 893c 90aa 063e b25a 11bd 14c6 803d
00000170: e789 5e3d d3a1 bcba aeae 173d 132e d03d
00000180: 0b5d 463d bf95 ccbd e763 7dbd b454 913d
00000190: 4434 62bd e389 193e cd93 5b3d bc2c 4f3d
000001a0: d4ba cb3b 181b 923d ace9 a23c 8ca7 8e3c
000001b0: 619b a9bd 9f5c eb3d 48b3 06bd 5047 993d
000001c0: 8edf 893d 578e fb38 ea88 f63c e8d8 8c3d
000001d0: d338 9fbd 5e79 1d3e ecb7 043d f2cf 8f3d
000001e0: 7437 0d3e 09db eebc 9275 3e3d c69a 81bd
000001f0: 65dc 8dbc 2d01 073e 6541 603d 1489 b93b
00000200: 257f b43b 7964 99bd 7201 013e 9676 14be
00000210: d531 4b3c 947a 1abe 9fcb adbb 041c 063d
00000220: b9dd 27bd 7487 5fbd 1977 93bc bcca a2bd
00000230: 23ff 93bd 31b1 28bd 8e99 fe3d 6168 7cbd
00000240: 0e1c 8d3c d305 573d dc5a 1a3d 55e1 fa3d
00000250: 294a 36bd dd02 99bd 7b61 db3d 07ba 30bd
00000260: 44cf 203d a1de 18bd 8bbe ffbd 8336 ecbc
00000270: f179 51bd 756c 16be eba5 e4bd 95e1 15bd
00000280: 0d38 573d 956c 9e3d cb12 dfbd bc40 7bbd
00000290: bf36 233d 2671 9ebd 6d29 ec3c e08c 7ebc
000002a0: f2bd 02be efef 8b3d 8d46 f33d 661e fa3c
000002b0: a442 5c3d 47b7 193d 8f02 6dbc f572 b3ba
000002c0: d8d2 65bd 0975 ecbd 4622 5b3d ccd3 1c3d
000002d0: 2a1a 673d 7b39 963c e2e2 65bd 43e5 a53d
000002e0: 39cc 8b3d fca3 f43d f007 1ebd 84df 79bd
000002f0: baf2 d2bc 382c e5bc 7cfc 023a 0e93 93bd
00000300: 380b 7fbd 6033 843d cdf0 71bc 1159 123e
00000310: 121e 91bc 9f7d 263e ad6d 2f3e fcc4 063d
00000320: 5646 39bc 07a0 033e 5f14 8e3d 42e4 1a3e
00000330: 9054 43bd 23a7 ba3d 6524 303e 28d1 cebc
00000340: 617f 56bd c3b7 b43b 9fc3 e5b9 0203 313d
00000350: 5f11 4a3c 3551 c7bc f747 0cbd eb06 2e3e
00000360: 46eb 8e3d 41cc 7b3d 83fc 483d 0b5c 923d
00000370: 2f29 b83d 0ada ca3d 015c 593d df68 b63d
00000380: 4574 753d 3716 f8bc 362d b43d 9122 2a3e
00000390: 589b 173e 3b2e 7b3d c8f2 fb3d 6939 bc3c
000003a0: 7020 3bbd 3b05 8cbd e577 f73d 0f35 4cbd
000003b0: 169a 2e3c 2a6a b53d 4d86 e63c bf31 0f3e
000003c0: 9f8f 873d 6da5 dc3d a3ea 55bd 2610 55bd
000003d0: 9d3f c53d 356d 04bb 0472 003e 9385 b03d
000003e0: 0f4e 853d 42a9 1d3d ddf6 eb3d 3550 013e
000003f0: fe76 17bd 87e9 6e3b e220 d63d 0e04 8fbb
